…
Taking ready-made acoustic embeddings
(48, 600)
Padding character sequences
(49, 1018)
Padding phone sequences
(49, 1031) (49, 1365) (49, 1119) (49, 1268)
Turning labels in one-hot vectors
(49, 5)
Taking ready-made acoustic embeddings
(49, 600)
MultiInputCharCNN Configurations loaded
Building the model
__________________________________________________________________________________________________
Layer (type)                    Output Shape         Param #     Connected to                     
==================================================================================================
sent_input (InputLayer)         (None, 1018)         0                                            
__________________________________________________________________________________________________
phone_CZ_input (InputLayer)     (None, 1031)         0                                            
__________________________________________________________________________________________________
phone_EN_input (InputLayer)     (None, 1365)         0                                            
__________________________________________________________________________________________________
phone_HU_input (InputLayer)     (None, 1119)         0                                            
__________________________________________________________________________________________________
phone_RU_input (InputLayer)     (None, 1268)         0                                            
__________________________________________________________________________________________________
embedding_1 (Embedding)         (None, 1018, 64)     6464        sent_input[0][0]                 
__________________________________________________________________________________________________
embedding_2 (Embedding)         (None, 1031, 64)     2944        phone_CZ_input[0][0]             
__________________________________________________________________________________________________
embedding_3 (Embedding)         (None, 1365, 64)     2496        phone_EN_input[0][0]             
__________________________________________________________________________________________________
embedding_4 (Embedding)         (None, 1119, 64)     3456        phone_HU_input[0][0]             
__________________________________________________________________________________________________
embedding_5 (Embedding)         (None, 1268, 64)     3264        phone_RU_input[0][0]             
__________________________________________________________________________________________________
zero_padding1d_1 (ZeroPadding1D (None, 1022, 64)     0           embedding_1[0][0]                
__________________________________________________________________________________________________
zero_padding1d_2 (ZeroPadding1D (None, 1026, 64)     0           embedding_1[0][0]                
__________________________________________________________________________________________________
zero_padding1d_3 (ZeroPadding1D (None, 1035, 64)     0           embedding_2[0][0]                
__________________________________________________________________________________________________
zero_padding1d_4 (ZeroPadding1D (None, 1039, 64)     0           embedding_2[0][0]                
__________________________________________________________________________________________________
zero_padding1d_5 (ZeroPadding1D (None, 1369, 64)     0           embedding_3[0][0]                
__________________________________________________________________________________________________
zero_padding1d_6 (ZeroPadding1D (None, 1373, 64)     0           embedding_3[0][0]                
__________________________________________________________________________________________________
zero_padding1d_7 (ZeroPadding1D (None, 1123, 64)     0           embedding_4[0][0]                
__________________________________________________________________________________________________
zero_padding1d_8 (ZeroPadding1D (None, 1127, 64)     0           embedding_4[0][0]                
__________________________________________________________________________________________________
zero_padding1d_9 (ZeroPadding1D (None, 1272, 64)     0           embedding_5[0][0]                
__________________________________________________________________________________________________
zero_padding1d_10 (ZeroPadding1 (None, 1276, 64)     0           embedding_5[0][0]                
__________________________________________________________________________________________________
conv1d_1 (Conv1D)               (None, 1022, 16)     3088        zero_padding1d_1[0][0]           
__________________________________________________________________________________________________
conv1d_2 (Conv1D)               (None, 1026, 16)     5136        zero_padding1d_2[0][0]           
__________________________________________________________________________________________________
conv1d_3 (Conv1D)               (None, 1035, 16)     3088        zero_padding1d_3[0][0]           
__________________________________________________________________________________________________
conv1d_4 (Conv1D)               (None, 1039, 16)     5136        zero_padding1d_4[0][0]           
__________________________________________________________________________________________________
conv1d_5 (Conv1D)               (None, 1369, 16)     3088        zero_padding1d_5[0][0]           
__________________________________________________________________________________________________
conv1d_6 (Conv1D)               (None, 1373, 16)     5136        zero_padding1d_6[0][0]           
__________________________________________________________________________________________________
conv1d_7 (Conv1D)               (None, 1123, 16)     3088        zero_padding1d_7[0][0]           
__________________________________________________________________________________________________
conv1d_8 (Conv1D)               (None, 1127, 16)     5136        zero_padding1d_8[0][0]           
__________________________________________________________________________________________________
conv1d_9 (Conv1D)               (None, 1272, 16)     3088        zero_padding1d_9[0][0]           
__________________________________________________________________________________________________
conv1d_10 (Conv1D)              (None, 1276, 16)     5136        zero_padding1d_10[0][0]          
__________________________________________________________________________________________________
global_max_pooling1d_1 (GlobalM (None, 16)           0           conv1d_1[0][0]                   
__________________________________________________________________________________________________
global_max_pooling1d_2 (GlobalM (None, 16)           0           conv1d_2[0][0]                   
__________________________________________________________________________________________________
global_max_pooling1d_3 (GlobalM (None, 16)           0           conv1d_3[0][0]                   
__________________________________________________________________________________________________
global_max_pooling1d_4 (GlobalM (None, 16)           0           conv1d_4[0][0]                   
__________________________________________________________________________________________________
global_max_pooling1d_5 (GlobalM (None, 16)           0           conv1d_5[0][0]                   
__________________________________________________________________________________________________
global_max_pooling1d_6 (GlobalM (None, 16)           0           conv1d_6[0][0]                   
__________________________________________________________________________________________________
global_max_pooling1d_7 (GlobalM (None, 16)           0           conv1d_7[0][0]                   
__________________________________________________________________________________________________
global_max_pooling1d_8 (GlobalM (None, 16)           0           conv1d_8[0][0]                   
__________________________________________________________________________________________________
global_max_pooling1d_9 (GlobalM (None, 16)           0           conv1d_9[0][0]                   
__________________________________________________________________________________________________
global_max_pooling1d_10 (Global (None, 16)           0           conv1d_10[0][0]                  
__________________________________________________________________________________________________
concatenate_1 (Concatenate)     (None, 160)          0           global_max_pooling1d_1[0][0]     
                                                                 global_max_pooling1d_2[0][0]     
                                                                 global_max_pooling1d_3[0][0]     
                                                                 global_max_pooling1d_4[0][0]     
                                                                 global_max_pooling1d_5[0][0]     
…
