…
(13806, 600)
Padding character sequences
(1509, 6830)
Padding phone sequences
(1509, 5885) (1509, 7329) (1509, 6436) (1509, 6837)
Turning labels in one-hot vectors
(1509, 5)
Taking ready-made acoustic embeddings
(1509, 600)
MultiInputCharCNN Configurations loaded
Building the model
__________________________________________________________________________________________________
Layer (type)                    Output Shape         Param #     Connected to                     
==================================================================================================
sent_input (InputLayer)         (None, 6830)         0                                            
__________________________________________________________________________________________________
phone_CZ_input (InputLayer)     (None, 5885)         0                                            
__________________________________________________________________________________________________
phone_EN_input (InputLayer)     (None, 7329)         0                                            
__________________________________________________________________________________________________
phone_HU_input (InputLayer)     (None, 6436)         0                                            
__________________________________________________________________________________________________
phone_RU_input (InputLayer)     (None, 6837)         0                                            
__________________________________________________________________________________________________
embedding_1 (Embedding)         (None, 6830, 32)     3232        sent_input[0][0]                 
__________________________________________________________________________________________________
embedding_2 (Embedding)         (None, 5885, 32)     1472        phone_CZ_input[0][0]             
__________________________________________________________________________________________________
embedding_3 (Embedding)         (None, 7329, 32)     1280        phone_EN_input[0][0]             
__________________________________________________________________________________________________
embedding_4 (Embedding)         (None, 6436, 32)     1984        phone_HU_input[0][0]             
__________________________________________________________________________________________________
embedding_5 (Embedding)         (None, 6837, 32)     1664        phone_RU_input[0][0]             
__________________________________________________________________________________________________
zero_padding1d_1 (ZeroPadding1D (None, 6834, 32)     0           embedding_1[0][0]                
__________________________________________________________________________________________________
zero_padding1d_2 (ZeroPadding1D (None, 6838, 32)     0           embedding_1[0][0]                
__________________________________________________________________________________________________
zero_padding1d_3 (ZeroPadding1D (None, 5889, 32)     0           embedding_2[0][0]                
__________________________________________________________________________________________________
zero_padding1d_4 (ZeroPadding1D (None, 5893, 32)     0           embedding_2[0][0]                
__________________________________________________________________________________________________
zero_padding1d_5 (ZeroPadding1D (None, 7333, 32)     0           embedding_3[0][0]                
__________________________________________________________________________________________________
zero_padding1d_6 (ZeroPadding1D (None, 7337, 32)     0           embedding_3[0][0]                
__________________________________________________________________________________________________
zero_padding1d_7 (ZeroPadding1D (None, 6440, 32)     0           embedding_4[0][0]                
__________________________________________________________________________________________________
zero_padding1d_8 (ZeroPadding1D (None, 6444, 32)     0           embedding_4[0][0]                
__________________________________________________________________________________________________
zero_padding1d_9 (ZeroPadding1D (None, 6841, 32)     0           embedding_5[0][0]                
__________________________________________________________________________________________________
zero_padding1d_10 (ZeroPadding1 (None, 6845, 32)     0           embedding_5[0][0]                
__________________________________________________________________________________________________
conv1d_1 (Conv1D)               (None, 6834, 8)      776         zero_padding1d_1[0][0]           
__________________________________________________________________________________________________
conv1d_2 (Conv1D)               (None, 6838, 8)      1288        zero_padding1d_2[0][0]           
__________________________________________________________________________________________________
conv1d_3 (Conv1D)               (None, 5889, 8)      776         zero_padding1d_3[0][0]           
__________________________________________________________________________________________________
conv1d_4 (Conv1D)               (None, 5893, 8)      1288        zero_padding1d_4[0][0]           
__________________________________________________________________________________________________
conv1d_5 (Conv1D)               (None, 7333, 8)      776         zero_padding1d_5[0][0]           
__________________________________________________________________________________________________
conv1d_6 (Conv1D)               (None, 7337, 8)      1288        zero_padding1d_6[0][0]           
__________________________________________________________________________________________________
conv1d_7 (Conv1D)               (None, 6440, 8)      776         zero_padding1d_7[0][0]           
__________________________________________________________________________________________________
conv1d_8 (Conv1D)               (None, 6444, 8)      1288        zero_padding1d_8[0][0]           
__________________________________________________________________________________________________
conv1d_9 (Conv1D)               (None, 6841, 8)      776         zero_padding1d_9[0][0]           
__________________________________________________________________________________________________
conv1d_10 (Conv1D)              (None, 6845, 8)      1288        zero_padding1d_10[0][0]          
__________________________________________________________________________________________________
global_max_pooling1d_1 (GlobalM (None, 8)            0           conv1d_1[0][0]                   
__________________________________________________________________________________________________
global_max_pooling1d_2 (GlobalM (None, 8)            0           conv1d_2[0][0]                   
__________________________________________________________________________________________________
global_max_pooling1d_3 (GlobalM (None, 8)            0           conv1d_3[0][0]                   
__________________________________________________________________________________________________
global_max_pooling1d_4 (GlobalM (None, 8)            0           conv1d_4[0][0]                   
__________________________________________________________________________________________________
global_max_pooling1d_5 (GlobalM (None, 8)            0           conv1d_5[0][0]                   
__________________________________________________________________________________________________
global_max_pooling1d_6 (GlobalM (None, 8)            0           conv1d_6[0][0]                   
__________________________________________________________________________________________________2018-03-23 14:36:57.133103: I tensorflow/core/platform/cpu_feature_guard.cc:137] Your CPU supports instructions that this TensorFlow binary was not compiled to use: SSE4.1 SSE4.2 AVX AVX2 FMA
2018-03-23 14:36:57.387205: I tensorflow/core/common_runtime/gpu/gpu_device.cc:1030] Found device 0 with properties: 
name: GeForce GTX 1080 major: 6 minor: 1 memoryClockRate(GHz): 1.7335
pciBusID: 0000:04:00.0
totalMemory: 7.92GiB freeMemory: 7.81GiB
2018-03-23 14:36:57.387234: I tensorflow/core/common_runtime/gpu/gpu_device.cc:1120] Creating TensorFlow device (/device:GPU:0) -> (device: 0, name: GeForce GTX 1080, pci bus id: 0000:04:00.0, compute capability: 6.1)

global_max_pooling1d_7 (GlobalM (None, 8)            0           conv1d_7[0][0]                   
__________________________________________________________________________________________________
global_max_pooling1d_8 (GlobalM (None, 8)            0           conv1d_8[0][0]                   
__________________________________________________________________________________________________
global_max_pooling1d_9 (GlobalM (None, 8)            0           conv1d_9[0][0]                   
__________________________________________________________________________________________________
global_max_pooling1d_10 (Global (None, 8)            0           conv1d_10[0][0]                  
__________________________________________________________________________________________________
dropout_1 (Dropout)             (None, 8)            0           global_max_pooling1d_1[0][0]     
__________________________________________________________________________________________________
dropout_2 (Dropout)             (None, 8)            0           global_max_pooling1d_2[0][0]     
__________________________________________________________________________________________________
dropout_3 (Dropout)             (None, 8)            0           global_max_pooling1d_3[0][0]     
__________________________________________________________________________________________________
dropout_4 (Dropout)             (None, 8)            0           global_max_pooling1d_4[0][0]     
__________________________________________________________________________________________________
dropout_5 (Dropout)             (None, 8)            0           global_max_pooling1d_5[0][0]     
__________________________________________________________________________________________________
dropout_6 (Dropout)             (None, 8)            0           global_max_pooling1d_6[0][0]     
__________________________________________________________________________________________________
dropout_7 (Dropout)             (None, 8)            0           global_max_pooling1d_7[0][0]     
__________________________________________________________________________________________________
dropout_8 (Dropout)             (None, 8)            0           global_max_pooling1d_8[0][0]     
__________________________________________________________________________________________________
dropout_9 (Dropout)             (None, 8)            0           global_max_pooling1d_9[0][0]     
__________________________________________________________________________________________________
dropout_10 (Dropout)            (None, 8)            0           global_max_pooling1d_10[0][0]    
__________________________________________________________________________________________________
concatenate_1 (Concatenate)     (None, 80)           0           dropout_1[0][0]                  
                                                                 dropout_2[0][0]                  
                                                                 dropout_3[0][0]                  
                                                                 dropout_4[0][0]                  
                                                                 dropout_5[0][0]                  
                                                                 dropout_6[0][0]                  
                                                                 dropout_7[0][0]                  
                                                                 dropout_8[0][0]                  
                                                                 dropout_9[0][0]                  
                                                                 dropout_10[0][0]                 
__________________________________________________________________________________________________
embed_input (InputLayer)        (None, 600)          0                                            
__________________________________________________________________________________________________
concatenate_2 (Concatenate)     (None, 680)          0           concatenate_1[0][0]              
                                                                 embed_input[0][0]                
__________________________________________________________________________________________________
dense_1 (Dense)                 (None, 32)           21792       concatenate_2[0][0]              
__________________________________________________________________________________________________
dropout_11 (Dropout)            (None, 32)           0           dense_1[0][0]                    
__________________________________________________________________________________________________
l_out (Dense)                   (None, 5)            165         dropout_11[0][0]                 
==================================================================================================
Total params: 41,909
Trainable params: 41,909
Non-trainable params: 0
__________________________________________________________________________________________________
Training Configurations loaded
Training the model
no checkpoints available !
Train on 13806 samples, validate on 1509 samples
…
