…
(13806, 600)
Padding character sequences
(1509, 6830)
Padding phone sequences
(1509, 5885) (1509, 7329) (1509, 6436) (1509, 6837)
Turning labels in one-hot vectors
(1509, 5)
Taking ready-made acoustic embeddings
(1509, 600)
MultiInputCharCNN Configurations loaded
Building the model
__________________________________________________________________________________________________
Layer (type)                    Output Shape         Param #     Connected to                     
==================================================================================================
sent_input (InputLayer)         (None, 6830)         0                                            
__________________________________________________________________________________________________
phone_CZ_input (InputLayer)     (None, 5885)         0                                            
__________________________________________________________________________________________________
phone_EN_input (InputLayer)     (None, 7329)         0                                            
__________________________________________________________________________________________________
phone_HU_input (InputLayer)     (None, 6436)         0                                            
__________________________________________________________________________________________________
phone_RU_input (InputLayer)     (None, 6837)         0                                            
__________________________________________________________________________________________________
embedding_1 (Embedding)         (None, 6830, 64)     6464        sent_input[0][0]                 
__________________________________________________________________________________________________
embedding_2 (Embedding)         (None, 5885, 64)     2944        phone_CZ_input[0][0]             
__________________________________________________________________________________________________
embedding_3 (Embedding)         (None, 7329, 64)     2560        phone_EN_input[0][0]             
__________________________________________________________________________________________________
embedding_4 (Embedding)         (None, 6436, 64)     3968        phone_HU_input[0][0]             
__________________________________________________________________________________________________
embedding_5 (Embedding)         (None, 6837, 64)     3328        phone_RU_input[0][0]             
__________________________________________________________________________________________________
zero_padding1d_1 (ZeroPadding1D (None, 6834, 64)     0           embedding_1[0][0]                
__________________________________________________________________________________________________
zero_padding1d_2 (ZeroPadding1D (None, 6838, 64)     0           embedding_1[0][0]                
__________________________________________________________________________________________________
zero_padding1d_3 (ZeroPadding1D (None, 5889, 64)     0           embedding_2[0][0]                
__________________________________________________________________________________________________
zero_padding1d_4 (ZeroPadding1D (None, 5893, 64)     0           embedding_2[0][0]                
__________________________________________________________________________________________________
zero_padding1d_5 (ZeroPadding1D (None, 7333, 64)     0           embedding_3[0][0]                
__________________________________________________________________________________________________
zero_padding1d_6 (ZeroPadding1D (None, 7337, 64)     0           embedding_3[0][0]                
__________________________________________________________________________________________________
zero_padding1d_7 (ZeroPadding1D (None, 6440, 64)     0           embedding_4[0][0]                
__________________________________________________________________________________________________
zero_padding1d_8 (ZeroPadding1D (None, 6444, 64)     0           embedding_4[0][0]                
__________________________________________________________________________________________________
zero_padding1d_9 (ZeroPadding1D (None, 6841, 64)     0           embedding_5[0][0]                
__________________________________________________________________________________________________
zero_padding1d_10 (ZeroPadding1 (None, 6845, 64)     0           embedding_5[0][0]                
__________________________________________________________________________________________________
conv1d_1 (Conv1D)               (None, 6834, 16)     3088        zero_padding1d_1[0][0]           
__________________________________________________________________________________________________
conv1d_2 (Conv1D)               (None, 6838, 16)     5136        zero_padding1d_2[0][0]           
__________________________________________________________________________________________________
conv1d_3 (Conv1D)               (None, 5889, 16)     3088        zero_padding1d_3[0][0]           
__________________________________________________________________________________________________
conv1d_4 (Conv1D)               (None, 5893, 16)     5136        zero_padding1d_4[0][0]           
__________________________________________________________________________________________________
conv1d_5 (Conv1D)               (None, 7333, 16)     3088        zero_padding1d_5[0][0]           
__________________________________________________________________________________________________
conv1d_6 (Conv1D)               (None, 7337, 16)     5136        zero_padding1d_6[0][0]           
__________________________________________________________________________________________________
conv1d_7 (Conv1D)               (None, 6440, 16)     3088        zero_padding1d_7[0][0]           
__________________________________________________________________________________________________
conv1d_8 (Conv1D)               (None, 6444, 16)     5136        zero_padding1d_8[0][0]           
__________________________________________________________________________________________________
conv1d_9 (Conv1D)               (None, 6841, 16)     3088        zero_padding1d_9[0][0]           
__________________________________________________________________________________________________
conv1d_10 (Conv1D)              (None, 6845, 16)     5136        zero_padding1d_10[0][0]          
__________________________________________________________________________________________________
global_max_pooling1d_1 (GlobalM (None, 16)           0           conv1d_1[0][0]                   
__________________________________________________________________________________________________
global_max_pooling1d_2 (GlobalM (None, 16)           0           conv1d_2[0][0]                   
__________________________________________________________________________________________________
global_max_pooling1d_3 (GlobalM (None, 16)           0           conv1d_3[0][0]                   
__________________________________________________________________________________________________
global_max_pooling1d_4 (GlobalM (None, 16)           0           conv1d_4[0][0]                   
__________________________________________________________________________________________________
global_max_pooling1d_5 (GlobalM (None, 16)           0           conv1d_5[0][0]                   
__________________________________________________________________________________________________
global_max_pooling1d_6 (GlobalM (None, 16)           0           conv1d_6[0][0]                   
__________________________________________________________________________________________________2018-03-23 10:58:53.343726: I tensorflow/core/platform/cpu_feature_guard.cc:137] Your CPU supports instructions that this TensorFlow binary was not compiled to use: SSE4.1 SSE4.2 AVX AVX2 FMA
2018-03-23 10:58:53.548765: I tensorflow/core/common_runtime/gpu/gpu_device.cc:1030] Found device 0 with properties: 
name: GeForce GTX 1080 major: 6 minor: 1 memoryClockRate(GHz): 1.7335
pciBusID: 0000:03:00.0
totalMemory: 7.92GiB freeMemory: 7.81GiB
2018-03-23 10:58:53.548793: I tensorflow/core/common_runtime/gpu/gpu_device.cc:1120] Creating TensorFlow device (/device:GPU:0) -> (device: 0, name: GeForce GTX 1080, pci bus id: 0000:03:00.0, compute capability: 6.1)

global_max_pooling1d_7 (GlobalM (None, 16)           0           conv1d_7[0][0]                   
__________________________________________________________________________________________________
global_max_pooling1d_8 (GlobalM (None, 16)           0           conv1d_8[0][0]                   
__________________________________________________________________________________________________
global_max_pooling1d_9 (GlobalM (None, 16)           0           conv1d_9[0][0]                   
__________________________________________________________________________________________________
global_max_pooling1d_10 (Global (None, 16)           0           conv1d_10[0][0]                  
__________________________________________________________________________________________________
concatenate_1 (Concatenate)     (None, 160)          0           global_max_pooling1d_1[0][0]     
                                                                 global_max_pooling1d_2[0][0]     
                                                                 global_max_pooling1d_3[0][0]     
                                                                 global_max_pooling1d_4[0][0]     
                                                                 global_max_pooling1d_5[0][0]     
…
