…
(13806, 600)
Padding character sequences
(1509, 6830)
Padding phone sequences
(1509, 5885) (1509, 7329) (1509, 6436) (1509, 6837)
Turning labels in one-hot vectors
(1509, 5)
Taking ready-made acoustic embeddings
(1509, 600)
MultiInputCharCNN Configurations loaded
Building the model
__________________________________________________________________________________________________
Layer (type)                    Output Shape         Param #     Connected to                     
==================================================================================================
phone_CZ_input (InputLayer)     (None, 5885)         0                                            
__________________________________________________________________________________________________
phone_EN_input (InputLayer)     (None, 7329)         0                                            
__________________________________________________________________________________________________
phone_HU_input (InputLayer)     (None, 6436)         0                                            
__________________________________________________________________________________________________
phone_RU_input (InputLayer)     (None, 6837)         0                                            
__________________________________________________________________________________________________
embedding_1 (Embedding)         (None, 5885, 32)     1472        phone_CZ_input[0][0]             
__________________________________________________________________________________________________
embedding_2 (Embedding)         (None, 7329, 32)     1280        phone_EN_input[0][0]             
__________________________________________________________________________________________________
embedding_3 (Embedding)         (None, 6436, 32)     1984        phone_HU_input[0][0]             
__________________________________________________________________________________________________
embedding_4 (Embedding)         (None, 6837, 32)     1664        phone_RU_input[0][0]             
__________________________________________________________________________________________________
zero_padding1d_1 (ZeroPadding1D (None, 5889, 32)     0           embedding_1[0][0]                
__________________________________________________________________________________________________
zero_padding1d_2 (ZeroPadding1D (None, 5893, 32)     0           embedding_1[0][0]                
__________________________________________________________________________________________________
zero_padding1d_3 (ZeroPadding1D (None, 7333, 32)     0           embedding_2[0][0]                
__________________________________________________________________________________________________
zero_padding1d_4 (ZeroPadding1D (None, 7337, 32)     0           embedding_2[0][0]                
__________________________________________________________________________________________________
zero_padding1d_5 (ZeroPadding1D (None, 6440, 32)     0           embedding_3[0][0]                
__________________________________________________________________________________________________
zero_padding1d_6 (ZeroPadding1D (None, 6444, 32)     0           embedding_3[0][0]                
__________________________________________________________________________________________________
zero_padding1d_7 (ZeroPadding1D (None, 6841, 32)     0           embedding_4[0][0]                
__________________________________________________________________________________________________
zero_padding1d_8 (ZeroPadding1D (None, 6845, 32)     0           embedding_4[0][0]                
__________________________________________________________________________________________________
conv1d_1 (Conv1D)               (None, 5889, 8)      776         zero_padding1d_1[0][0]           
__________________________________________________________________________________________________
conv1d_2 (Conv1D)               (None, 5893, 8)      1288        zero_padding1d_2[0][0]           
__________________________________________________________________________________________________
conv1d_3 (Conv1D)               (None, 7333, 8)      776         zero_padding1d_3[0][0]           
__________________________________________________________________________________________________
conv1d_4 (Conv1D)               (None, 7337, 8)      1288        zero_padding1d_4[0][0]           
__________________________________________________________________________________________________
conv1d_5 (Conv1D)               (None, 6440, 8)      776         zero_padding1d_5[0][0]           
__________________________________________________________________________________________________
conv1d_6 (Conv1D)               (None, 6444, 8)      1288        zero_padding1d_6[0][0]           
__________________________________________________________________________________________________
conv1d_7 (Conv1D)               (None, 6841, 8)      776         zero_padding1d_7[0][0]           
__________________________________________________________________________________________________
conv1d_8 (Conv1D)               (None, 6845, 8)      1288        zero_padding1d_8[0][0]           
__________________________________________________________________________________________________
global_max_pooling1d_1 (GlobalM (None, 8)            0           conv1d_1[0][0]                   
__________________________________________________________________________________________________
global_max_pooling1d_2 (GlobalM (None, 8)            0           conv1d_2[0][0]                   
__________________________________________________________________________________________________
global_max_pooling1d_3 (GlobalM (None, 8)            0           conv1d_3[0][0]                   
__________________________________________________________________________________________________
global_max_pooling1d_4 (GlobalM (None, 8)            0           conv1d_4[0][0]                   
__________________________________________________________________________________________________
global_max_pooling1d_5 (GlobalM (None, 8)            0           conv1d_5[0][0]                   
__________________________________________________________________________________________________
global_max_pooling1d_6 (GlobalM (None, 8)            0           conv1d_6[0][0]                   
__________________________________________________________________________________________________
global_max_pooling1d_7 (GlobalM (None, 8)            0           conv1d_7[0][0]                   
__________________________________________________________________________________________________
global_max_pooling1d_8 (GlobalM (None, 8)            0           conv1d_8[0][0]                   
__________________________________________________________________________________________________
concatenate_1 (Concatenate)     (None, 64)           0           global_max_pooling1d_1[0][0]     
                                                                 global_max_pooling1d_2[0][0]     
                                                                 global_max_pooling1d_3[0][0]     
                                                                 global_max_pooling1d_4[0][0]     
                                                                 global_max_pooling1d_5[0][0]     
…
